…
<span class="n">conv_base_crop</span><span class="o">.</span><span class="n">trainable</span><span class="o">=</span><span class="bp">False</span>
<span class="n">conv_base_crop</span><span class="o">.</span><span class="n">summary</span><span class="p">()</span>
</code></pre></div></div>
<div class="language-text highlighter-rouge"><div class="highlight"><pre class="highlight"><code>_________________________________________________________________
Layer (type)                 Output Shape              Param #   
=================================================================
input_1 (InputLayer)         (None, 256, 256, 3)       0         
_________________________________________________________________
block1_conv1 (Conv2D)        (None, 256, 256, 64)      1792      
_________________________________________________________________
block1_conv2 (Conv2D)        (None, 256, 256, 64)      36928     
_________________________________________________________________
block1_pool (MaxPooling2D)   (None, 128, 128, 64)      0         
_________________________________________________________________
block2_conv1 (Conv2D)        (None, 128, 128, 128)     73856     
_________________________________________________________________
block2_conv2 (Conv2D)        (None, 128, 128, 128)     147584    
_________________________________________________________________
block2_pool (MaxPooling2D)   (None, 64, 64, 128)       0         
_________________________________________________________________
block3_conv1 (Conv2D)        (None, 64, 64, 256)       295168    
_________________________________________________________________
block3_conv2 (Conv2D)        (None, 64, 64, 256)       590080    
_________________________________________________________________
block3_conv3 (Conv2D)        (None, 64, 64, 256)       590080    
_________________________________________________________________
block3_pool (MaxPooling2D)   (None, 32, 32, 256)       0         
_________________________________________________________________
block4_conv1 (Conv2D)        (None, 32, 32, 512)       1180160   
_________________________________________________________________
block4_conv2 (Conv2D)        (None, 32, 32, 512)       2359808   
_________________________________________________________________
block4_conv3 (Conv2D)        (None, 32, 32, 512)       2359808   
_________________________________________________________________
block4_pool (MaxPooling2D)   (None, 16, 16, 512)       0         
=================================================================
Total params: 7,635,264
Trainable params: 0
Non-trainable params: 7,635,264
_________________________________________________________________
</code></pre></div></div>

<p>We final part of our model is a  sequence of <code class="highlighter-rouge">Conv2D</code> layers, to reduce the number of filters, and <code class="highlighter-rouge">UpSampling2D</code> layers, to increase the size of the image representation:</p>
…
<span class="p">,</span> <span class="n">padding</span><span class="o">=</span><span class="s">'same'</span><span class="p">))</span>

<span class="n">doctor_model</span><span class="o">.</span><span class="n">summary</span><span class="p">()</span>
</code></pre></div></div>
<div class="language-text highlighter-rouge"><div class="highlight"><pre class="highlight"><code>_________________________________________________________________
Layer (type)                 Output Shape              Param #   
=================================================================
model_1 (Model)              (None, 16, 16, 512)       7635264   
_________________________________________________________________
conv2d_1 (Conv2D)            (None, 16, 16, 32)        147488    
_________________________________________________________________
up_sampling2d_1 (UpSampling2 (None, 32, 32, 32)        0         
_________________________________________________________________
conv2d_2 (Conv2D)            (None, 32, 32, 16)        4624      
_________________________________________________________________
up_sampling2d_2 (UpSampling2 (None, 64, 64, 16)        0         
_________________________________________________________________
conv2d_3 (Conv2D)            (None, 64, 64, 16)        2320      
_________________________________________________________________
up_sampling2d_3 (UpSampling2 (None, 128, 128, 16)      0         
_________________________________________________________________
conv2d_4 (Conv2D)            (None, 128, 128, 8)       1160      
_________________________________________________________________
up_sampling2d_4 (UpSampling2 (None, 256, 256, 8)       0         
_________________________________________________________________
conv2d_5 (Conv2D)            (None, 256, 256, 1)       73        
=================================================================
Total params: 7,790,929
Trainable params: 155,665
Non-trainable params: 7,635,264
_________________________________________________________________
</code></pre></div></div>

<h3 id="fit">Fit</h3>

<p>We fit the model using the <code class="highlighter-rouge">binary_crossentropy</code> loss function and <code class="highlighter-rouge">Adam</code> as optimizer. We finally save the model as an HDF5 file.</p>
…
